Assets/05.TrainingData/3DBall.onnx (onnx, 73816 bytes, 9 tensors)

network_body.observation_encoder.processors.0.normalizer.running_mean f4 [8]
000000 37 db 4a 3a 68 67 4d 3a 88 c1 c2 3d b9 bb 43 40
       0.0007738354 0.0007835538 0.095095694 3.0583327
000010 97 4c d1 3c 0a ab 51 bb 64 85 78 be 11 95 74 3b
       0.025549216 -0.0031992816 -0.24269634 0.0037320296

network_body._body_endoder.seq_layers.0.weight f4 [128, 8]
000000 52 af d6 3e 4c 50 da 3d bc 33 00 3f 11 c1 bf 3d
       0.41930634 0.10659847 0.5007894 0.09362996
000010 9c 4a 99 be 9a 1d 17 bf 14 c9 c8 3e e0 22 c5 be
       -0.29939735 -0.59029543 0.3921591 -0.3850317
000020 96 4b a6 bd 23 de 6d 3e 0a 85 1b 3e 7b 5a e9 be
       -0.081198856 0.2322927 0.15187469 -0.45576844
000030 f8 cc 85 3e 8e a3 80 be 8a d4 11 be cb a5 2e bf
       0.2613294 -0.25124782 -0.14241233 -0.6822173
000040 79 94 69 3e 96 f2 3f be 4f 3b fc 3c 7f fc 53 bc
       0.22810544 -0.18744883 0.03079 -0.012938618
000050 e8 01 ce 3e 3d d7 1e 3e 75 ca 8a 3e 88 52 32 3f
       0.4023583 0.15511794 0.27107587 0.6965718
000060 87 eb f5 be b6 fc 2c 3d 03 a8 2f 3f de 5c 33 3d
       -0.48031256 0.04223319 0.6861574 0.043789737
000070 bd 03 61 be 8b ad 65 3e e7 45 e9 be a7 82 ba 3e
       -0.21974082 0.22429483 -0.45561144 0.36427805
000080 89 a6 02 bf b5 7a c8 be 14 40 0a 3d d6 ce 91 be
       -0.5103536 -0.39156118 0.033752516 -0.28478116
000090 e0 1e c1 3e 21 7b ee be f9 bc 45 3e 7f bf 89 3e
       0.37718868 -0.46578315 0.19310369 0.26903912
0000a0 1a 7a ab 3e 2f e5 ca 3e bc 45 36 3e e4 a2 36 bd
       0.33491594 0.39627978 0.17800039 -0.04458894
0000b0 ab f7 46 be 63 52 20 be 1b 83 8a 3e e3 2c 5e be
       -0.19430415 -0.15656428 0.2705315 -0.2169681
0000c0 bf b9 9b 3e ad 41 2e 3e 06 5d e8 3d d1 a8 51 3f
       0.3041515 0.17017241 0.11345868 0.8189822
0000d0 09 f3 17 be c0 25 84 3e 9f b4 03 3f 37 bb 22 be
       -0.14838804 0.2581005 0.5144748 -0.1589173
0000e0 71 6f a7 3d bb a2 c8 3e f6 3b 20 3e d4 b9 97 3d
       0.08175553 0.39186653 0.15647873 0.07408491
0000f0 32 c7 4f bd 67 fe fe be f9 1e 7a be ec 93 99 bc
       -0.050727077 -0.4980347 -0.24425878 -0.018747292
000100 cd 94 ff bc a2 44 8c 3e 5d db 8c 3e eb e3 29 bf
       -0.031198883 0.27396113 0.2751111 -0.663634
000110 32 c0 61 3f c8 c4 4d 3e a4 8e 9a be d0 fd 1e bd
       0.8818389 0.20094597 -0.3018695 -0.038816273
000120 c1 d1 81 be 34 d0 2c be 64 cc 9e 3e 29 a8 c2 3b
       -0.25355342 -0.16876298 0.31015313 0.0059404564
000130 31 b1 03 bd fd e3 29 3e fb fb d0 3e 11 53 05 3f
       -0.032151405 0.16590877 0.40817246 0.52079874
000140 6c d7 46 3e 69 df 8e 3e 32 ca b8 3e 05 f9 6c be
       0.19418114 0.27904823 0.36091763 -0.23141868
000150 4b c1 18 be 93 f6 fd 3e 3c c9 c5 be 9d a2 c3 be
       -0.14917485 0.49602184 -0.38630092 -0.38210002
000160 67 1e a5 be fc cb 1f bf 05 62 ac bd 2f cd 00 3d
       -0.32249758 -0.6242063 -0.08417133 0.03144568
000170 f4 4f 31 be 0e 65 e9 3e a0 1e 10 bd 39 19 c5 bd
       -0.17315656 0.4558491 -0.035185456 -0.096239515
000180 35 5f 63 3e c3 42 a7 3d 8c 66 88 be f2 83 7f 3e
       0.22204287 0.08167031 -0.26640737 0.24952677
000190 54 b6 96 3d 31 a7 f0 bd 48 e4 ee 3e 57 36 de 3e
       0.07358995 -0.11750639 0.4665854 0.43400833
0001a0 25 fb 33 3e ff 3f 7a 3d f4 ec eb bd 3a 87 c4 bd
       0.17576273 0.061096188 -0.115198046 -0.09596105
0001b0 a1 a8 89 be 10 a6 0f bc 44 90 ee 3e 0e f1 73 be
       -0.26886466 -0.00876762 0.4659444 -0.23822424
0001c0 93 ea 8d be 70 03 17 3f 9d ff 43 3f 96 3c b5 be
       -0.27718028 0.5898962 0.7656191 -0.35397786
0001d0 6e 7c 8f 3e 18 e9 59 3d f0 cf 0d 3e 5f 58 ec 3e
       0.2802462 0.05320081 0.13848853 0.46161172
0001e0 fe 9a 1f bf 34 bb c9 3e e3 14 43 3e b5 8b e7 3d
       -0.62345874 0.39400637 0.19050936 0.11305944
0001f0 e5 24 c6 3c 09 a8 b5 be 1e 39 07 bf c4 6c 2e 3f
       0.024187515 -0.35479763 -0.5282153 0.68134713
000200 66 cd d4 be 53 a4 ea 3c 2e a2 03 3f 69 e3 55 3e
       -0.41562957 0.028642809 0.5141934 0.20887531
000210 36 29 ad be a0 bb eb be 1a be b2 3c 69 eb 7e bd
       -0.33820504 -0.46041584 0.021819163 -0.062236223
000220 a9 a2 f1 3e 0e 8a a2 bd 86 e8 c2 3e 38 b1 8a 3e
       0.47194412 -0.07936488 0.38068026 0.27088332
000230 60 bc 2e 3f c8 62 81 3d 4c a9 ca 3e 95 c5 42 bf
       0.6825619 0.06317669 0.39582288 -0.76082736
000240 c8 68 0c 3e 37 6e fd bd 1c 67 1d 3e 87 9b ef bd
       0.13711846 -0.123745374 0.15371364 -0.11699586
000250 79 fd 24 3f 43 0f 3d be 1c fa 12 be d3 35 23 3f
       0.6444927 -0.18462853 -0.14353222 0.63754004
000260 b4 c3 03 be bf 09 31 bf 50 05 66 3f 9a b4 81 be
       -0.12867624 -0.69155496 0.89851856 -0.253331
000270 25 03 26 be 1c dc da be b5 29 c5 be c7 e1 cd 3e
       -0.16212137 -0.42746055 -0.38508382 0.40211317
000280 b5 5e 27 be 69 e7 96 bc 6c de 46 bc 69 da c6 be
       -0.16344722 -0.018420892 -0.01213799 -0.3883851
000290 9c 11 99 3e db d3 26 bf 25 1f b8 be 12 45 3c be
       0.29896247 -0.65167016 -0.3596126 -0.18385723
0002a0 3e 9c 10 3f 49 bb c1 3e 1f 89 21 bc 8f 08 25 be
       0.56488407 0.378382 -0.009859352 -0.16116546
0002b0 9e 9d 9b be d1 cf 5b bf c3 05 95 3d 1d 5f 01 3d
       -0.3039369 -0.8586398 0.072764896 0.031584848
0002c0 4d c9 80 3e d2 02 26 3e 50 ee c5 bd 93 21 e7 3e
       0.2515358 0.16212013 -0.09664595 0.45142803
0002d0 fb 4b cf 3d d6 e0 b4 bd b2 55 07 bf ad ce db 3d
       0.10121914 -0.088319466 -0.52865136 0.1073278
0002e0 04 80 f7 3d 9f 90 06 bd f8 01 16 bc 14 e0 14 be
       0.12084964 -0.032852765 -0.009155743 -0.14538604
0002f0 6d 3d 79 be a0 17 23 3f c0 36 6f be 8a 3c 27 3f
       -0.24339838 0.63707924 -0.23360729 0.6532675
000300 6b 20 a0 3e 16 60 c2 3d 57 18 99 bd 5d a6 ae 3e
       0.31274733 0.09490983 -0.074753456 0.341113
000310 5c 33 1a be ac 34 a7 bc ba f0 bc be 6f ea d6 3c
       -0.15058655 -0.020410858 -0.3690241 0.026234834
000320 03 42 12 3f d2 43 c8 3d 02 8b 2a bf 9b 62 11 be
       0.57131976 0.09778561 -0.6661836 -0.14197771
000330 43 61 1e bc 6f 73 07 bf 98 be 17 3b dd b0 20 3f
       -0.009666744 -0.5291051 0.0023154374 0.6276987
000340 05 6b b1 3d e8 41 94 be 11 12 9d 3e e4 7e d6 3e
       0.086629905 -0.28956532 0.30677846 0.41893685
000350 63 cc 98 3d e0 2c ce 3e 59 73 d9 bd 07 cf a7 3e
       0.07460859 0.40268612 -0.10617704 0.32775137
000360 4f d2 c9 bd ec 48 82 3b d9 3b c3 bd 9a 6e 75 3e
       -0.09854566 0.003975978 -0.095328994 0.23967972
000370 44 36 1d bd 04 09 87 be e3 9d 34 bf be 14 85 bd
       -0.03838183 -0.26374066 -0.70553416 -0.06498097
000380 21 cd dd 3e d0 12 ad be 2e e2 3b 3e 80 5f 0b bf
       0.43320563 -0.33803415 0.18348 -0.54442596
000390 29 72 27 bd 6f 5c c5 be b8 11 a1 be 2a dc 4e 3e
       -0.040880356 -0.38547084 -0.3145883 0.20201173
0003a0 e7 db 53 3e 40 93 6a 3e ae 0a a1 3e ec a6 1a be
       0.20689355 0.22907734 0.3145346 -0.15102738
0003b0 d4 7a 26 3e 79 f4 33 3e f8 30 80 be e8 f2 f4 bd
       0.16257793 0.17573728 -0.2503736 -0.11960393
0003c0 ac 77 0e be 19 9d f7 be 1b 66 86 be 9c 45 a1 be
       -0.13912839 -0.48362043 -0.26249775 -0.3149842
0003d0 63 a2 48 3f e2 1c 66 bf e2 a1 37 3f 72 68 13 3e
       0.7837278 -0.8988782 0.7173139 0.14395311
0003e0 fa d3 83 be e8 de 4f bd 07 6f da 3e b5 3b 48 be
       -0.25747663 -0.05074969 0.42662832 -0.19554026
0003f0 3c 07 be bc 79 51 a3 be 3e 8e 3b bf 63 35 20 be
       -0.023196809 -0.31898096 -0.7326392 -0.15645365

network_body._body_endoder.seq_layers.0.bias f4 [128]
000000 b9 c3 a7 bc 13 da 28 bd ff 3b ea bc ff 2b bb bc
       -0.02047907 -0.041223597 -0.028593061 -0.022848127
000010 bf 65 5a bc fe 01 ab bc 50 18 95 bc b9 e9 17 3c
       -0.013329922 -0.020874973 -0.01820007 0.009272032
000020 b8 4d b1 bd 45 40 08 3c 7b 9d 01 bd f0 09 e8 bb
       -0.08657402 0.008316104 -0.031644326 -0.007081263
000030 2a d2 66 3d 87 76 b0 3b 9a 45 a9 bd f8 ae f5 3c
       0.05635277 0.0053852233 -0.082652286 0.029990658
000040 a4 9a 12 bd df 5a 37 bd 5b 18 1e 3d c9 2f cd bd
       -0.035792008 -0.044764396 0.038597446 -0.1001888
000050 0a 17 1a bc 9b 32 be bd 7d b5 35 3d 18 4d b4 bd
       -0.009404907 -0.09286996 0.044362534 -0.08803767
000060 83 d4 ba 3c 18 4d be 3d 91 35 03 bd fc 9e 00 bd
       0.022806412 0.09292048 -0.032033507 -0.03140162
000070 c2 d9 c5 bd d9 c2 9c bc 10 f1 ec 3c e0 5a 94 bd
       -0.09660675 -0.01913588 0.028923541 -0.072438955
000080 3e 4c 1c 3d ef 2c ec 3c be ed 40 3c 8a 09 aa bd
       0.038158648 0.02883002 0.011775432 -0.08302601
000090 72 db 18 3c ab 97 67 bd 84 2d 2c bd c6 dd e9 3b
       0.009329664 -0.056541126 -0.042035595 0.007137033
0000a0 8a b9 89 bd fa 52 1e 3c 6e b9 c5 bd 7b a5 06 3d
       -0.06724842 0.009663338 -0.096545085 0.03287266
0000b0 e6 4d 9d bc 72 3d 66 bd 02 50 d3 bd 94 a0 25 bd
       -0.019202184 -0.056210943 -0.10317995 -0.040436342
0000c0 e3 28 f6 3c f9 81 fc 3b 91 ff 23 3d f1 6c 88 bc
       0.030048793 0.0077059236 0.04003865 -0.01665351
0000d0 31 a6 03 bd ac d7 90 bd ba 4c 48 3d 00 b8 15 3d
       -0.032140914 -0.07072386 0.048901297 0.03655243
0000e0 53 53 83 3b 90 cd 10 bc ba 4c 80 3d 3c 23 05 bd
       0.0040077358 -0.008838072 0.062646344 -0.032504305
0000f0 b2 38 e9 bc 36 ea a2 bd 69 43 5c bc 78 84 2d bc
       -0.028469417 -0.079548284 -0.013443806 -0.010590665
000100 e0 c4 bf 3d 5e 53 48 3d 23 7b 78 3d f3 0f 57 bd
       0.09363723 0.04890763 0.060664307 -0.052505445
000110 4f 88 82 bc e2 4e 2d 3d 30 26 12 bd fe fe d1 bb
       -0.015934138 0.042311557 -0.03568095 -0.0064085713
000120 d8 64 17 bb 96 bf aa bd a3 f7 86 bd ae 4f 1c 3d
       -0.002310088 -0.08337323 -0.06590202 0.038161926
000130 93 c8 c2 3a f4 85 ba bd a0 c1 e2 bc ed 74 08 3d
       0.0014860801 -0.09107581 -0.027680218 0.033314634
000140 8a f7 e6 bc f1 3f 60 bb bd f1 47 bd 7d 77 00 bd
       -0.028194208 -0.00342178 -0.048814524 -0.031363953
000150 fc c7 72 bd fa aa 2f bc c0 b1 84 bd 15 18 5c 3a
       -0.05927275 -0.010721916 -0.064792156 0.00083959225
000160 eb c3 61 bb b9 b2 94 bd 1a bf 9a 3d 40 ce 45 3b
       -0.0034449052 -0.07260651 0.07555981 0.003018275
000170 91 6b b8 bd 97 21 9f bc 85 5a 05 bc dd cc 85 3d
       -0.09004892 -0.019425197 -0.008139257 0.06533215
000180 15 e6 e3 3b 80 21 90 bc 76 93 2e 3c 62 d1 da bb
       0.006954918 -0.017594099 0.010655275 -0.0066777924
000190 0a 1e f8 3a f4 9a 12 3d 1a 66 c1 bd c3 84 3f bd
       0.0018929851 0.035792306 -0.094433025 -0.04675747
0001a0 f2 5d 1d 3d 47 8b f2 bb 7e 10 c0 3a 25 31 19 bd
       0.03841967 -0.007401857 0.0014653353 -0.037400384
0001b0 d8 29 10 be 26 55 e8 bc 5e 2b 1e 3c aa d1 d4 bd
       -0.14078462 -0.028360914 0.009653894 -0.10391553
0001c0 ae 7b 99 3c 3f 76 47 3d 86 6d 53 bc 42 65 fe 3b
       0.018735733 0.048696753 -0.01290453 0.0077635357
0001d0 ba a7 3f bd 99 f1 bf bd f7 6a 96 bc e9 cc 69 bd
       -0.046790816 -0.09372253 -0.018361552 -0.057080183
0001e0 d7 1b b6 bd ad 1d 86 3c 9e de 81 3c 1d a2 02 be
       -0.08892029 0.016371572 0.015853222 -0.12757154
0001f0 cd fb 9d bd c5 ee 27 bd 30 44 cd bc 10 68 4f bd
       -0.07714043 -0.040999193 -0.025056928 -0.05063635

network_body._body_endoder.seq_layers.2.weight f4 [128, 128]
000000 00 6d d5 bd 95 26 23 be 81 cd 8b 3d d4 8a ab bd
       -0.10421181 -0.15932687 0.06826306 -0.08376089
000010 78 33 6a 3d 07 5d 83 3d 70 fd 2c 3e 63 9c c5 bd
       0.05717799 0.06414228 0.16893554 -0.09648969
000020 e5 b0 14 3e 67 09 e6 3d 60 4d 1d 3e e5 d4 0a 3e
       0.14520605 0.11232262 0.15361547 0.13557775
000030 9b 57 c7 bd 09 78 21 be fb 8a 01 bd 3f 3e 78 3e
       -0.09733506 -0.15768446 -0.031626683 0.24242495
000040 01 1d 6e 3e 40 30 2f bd d7 c5 df bc fa 79 64 bd
       0.23253252 -0.042770624 -0.027316017 -0.05578039
000050 1f d0 b6 bd b8 4d 2e be f6 78 a5 3d b1 b4 f9 3d
       -0.08926415 -0.17021835 0.08079712 0.12192667
000060 f3 1a 3e bd 3a 47 1b be 39 db a9 bd 9f cf 92 3d
       -0.04641242 -0.1516389 -0.082937665 0.07168507
000070 35 9b 11 be 08 ab 4d bd b6 49 c4 bd e4 b8 11 bd
       -0.14219363 -0.050211936 -0.09584372 -0.035576716
000080 8a 4c ad bd 0b f8 3c be 31 16 e6 bd 76 dc ee 3d
       -0.08461864 -0.18453996 -0.112347014 0.11663143
000090 55 f7 d5 3d 63 da 95 bd da 11 86 bc 15 52 20 3d
       0.104475655 -0.073170446 -0.016365934 0.03914078
0000a0 a5 bc 73 bc e3 c8 1f 3d c1 cb 00 be 18 fd 6d be
       -0.014876519 0.03900994 -0.12577726 -0.23241079
0000b0 2c 5c 29 3d 94 9e 6b 3d a6 78 99 bd 8d 9d a6 3d
       0.041347668 0.05752428 -0.07493715 0.08135519
0000c0 eb 1c 8c bd 0f ac 51 3e 18 f8 64 bd 8a f1 fa 3b
       -0.06841453 0.20475791 -0.055900663 0.007658188
0000d0 66 63 6b bd d2 14 8a 3c fd 8f 8a bd f2 a1 08 3e
       -0.05746784 0.016855631 -0.06765745 0.13343027
0000e0 7e ed 24 bd 90 01 f3 3c 97 5f 2e 3d 85 b2 99 bd
       -0.040265553 0.029663831 0.04257163 -0.07504753
0000f0 76 ae 2f 3d ff b4 2e be 37 54 0e be 3c 07 04 3c
       0.04289099 -0.17061232 -0.13899313 0.008058365
000100 16 9d 0b bd 6a ea a3 3d 96 e4 c1 3c 74 47 3c be
       -0.034085356 0.08003695 0.023668569 -0.18386632
000110 4a f5 33 be ea ec b5 bd fa 73 8d bd f6 2f 08 3e
       -0.17574039 -0.088830784 -0.069068864 0.13299546
000120 1e a5 c9 bd b2 94 37 bd e5 20 d8 bd db b7 3c bd
       -0.09845947 -0.04481954 -0.10553149 -0.046073776
000130 c9 4b ad 3e 3d 44 33 3d d2 d6 13 3d 92 24 62 3e
       0.33846882 0.04376625 0.03609354 0.22084263
000140 a0 20 40 3c 53 8c 48 3d 24 dc 02 bd 3b 38 73 3d
       0.011726528 0.04896195 -0.031948224 0.059379797
000150 db 9c 87 be 86 b4 0b be a9 cd d2 bd 87 79 d6 3d
       -0.2648686 -0.13643083 -0.10293133 0.10472398
000160 0e b4 3a 3d 3c 63 6b bd de 00 4c bd fb 22 3b 3e
       0.04558187 -0.057467684 -0.049805515 0.18275063
000170 80 80 63 3d 57 79 6b bd 75 78 3b 3d 2e 47 ce bc
       0.05554247 -0.057488766 0.045769174 -0.025180425
000180 10 c0 5e 3d 48 20 a0 3b 3f 40 b3 3d 78 d3 a8 bd
       0.054382384 0.0048866607 0.08752488 -0.082434595
000190 09 4f 73 be 15 52 0d be 89 b6 1e bd b4 c6 ec 3c
       -0.23760618 -0.13800843 -0.038748298 0.028903343
0001a0 0e 05 c7 bd bf cf 68 bd bb 3a b8 3d d7 22 4b be
       -0.09717761 -0.056838747 0.08995577 -0.19837509
0001b0 5d bd 59 bd 5d 6b 2a 3e c3 03 af 3d 79 6c 91 3c
       -0.053159107 0.16642518 0.08545639 0.01775192
0001c0 15 99 32 3d 86 61 cc bd 23 a0 93 bd 74 c5 9a 3d
       0.04360302 -0.099795386 -0.07208278 0.075571924
0001d0 e0 a0 1c 3d 22 67 90 bd ef 6d bf bd ff 51 11 3e
       0.03823936 -0.07050921 -0.0934714 0.14191435
0001e0 c4 29 39 bd a2 68 87 bc 88 19 71 be 50 d6 b7 bd
       -0.045205846 -0.016529385 -0.23544896 -0.08976424
0001f0 d7 35 2b be 63 4b 11 be 85 8e 23 3d 07 f3 6f bd
       -0.16719757 -0.14188914 0.03993084 -0.05858138
000200 57 6b 40 bd 02 d9 48 bd 9e f2 20 be a7 55 a9 bb
       -0.046977367 -0.04903508 -0.15717551 -0.0051676813
000210 54 a7 8f 3c 4a 55 c5 3c 05 bc 00 bd 42 ed ac bd
       0.017535843 0.02408852 -0.03142931 -0.08443691
000220 da 34 05 3c 52 40 43 3e be 03 c7 bd 31 fb 91 bd
       0.008130277 0.19067505 -0.09717511 -0.07127989
000230 f5 0d d0 3c 98 5f fc bd 25 5f 05 bd 64 94 91 bd
       0.02539728 -0.123229206 -0.03256144 -0.071083814
000240 85 96 09 bd 0f cf 56 3e af d0 41 bd e1 e1 07 bd
       -0.033590812 0.20977424 -0.047318157 -0.0331744
000250 8d 65 aa bd 3a 6b d8 bd 70 16 f6 bc e6 3b 6f bd
       -0.083201505 -0.10567327 -0.030039996 -0.058406733
000260 3b 97 ad 3d c4 d8 21 3d 94 bd f4 bc f3 02 16 3e
       0.084761105 0.039513364 -0.029875554 0.14649563
000270 90 12 1e bd 86 37 7a bc d5 a6 13 3d 2a b0 6d bd
       -0.03859192 -0.015272027 0.036047775 -0.05802933
000280 81 e6 93 3d 2d cc bd ba 57 7c ae 3c 54 f5 37 bd
       0.072216995 -0.0014480405 0.021299524 -0.044911698
000290 3a e6 4f be 28 ce c0 3b 8d 4d b4 3d b2 3c ff bd
       -0.20302668 0.0058839507 0.08803854 -0.124627486
0002a0 bc 6c 0e 3b 24 a1 98 bd f4 e9 1c bd 12 96 bb ba
       0.0021732291 -0.0745261 -0.038309053 -0.0014311692
0002b0 a9 f6 d0 3c a0 39 e4 3c e2 fc 8d bd 1d a3 89 3c
       0.025508242 0.027859509 -0.06932999 0.016801411
0002c0 84 85 9a 3d 70 5e 79 3d 01 dc ee bd b7 45 47 bd
       0.07544997 0.06088108 -0.11663056 -0.04865047
0002d0 6a d4 e4 3c 2a 50 a0 bd 5b 91 aa 3c 3c 1e 29 be
       0.027933318 -0.0782779 0.020821264 -0.1651544
0002e0 01 ea c2 3d ac b9 a3 bc d3 8d b4 3c 61 3d 9a 3d
       0.09517289 -0.019985996 0.022040283 0.07531238
0002f0 8b 12 9d 3d 69 11 e6 3d 42 75 df bd a9 a3 46 bd
       0.076695524 0.112337895 -0.10911037 -0.048495922
000300 d0 c1 98 bc 01 1e f8 3c 27 13 b6 ba 99 34 a1 bd
       -0.018647105 0.030287744 -0.0013891206 -0.0787136
000310 da 62 b0 bd c7 5f b9 bc 4e 41 23 3e 44 89 5a bd
       -0.086126044 -0.022628678 0.1594288 -0.053353563
000320 12 3d af 3d 1d 54 78 bd b1 36 ad bd e3 fc 98 3d
       0.0855657 -0.06062709 -0.08457697 0.07470109
000330 b6 47 1d be 38 20 95 bd 94 da c3 bd 10 48 c9 bd
       -0.15359387 -0.07281536 -0.09563175 -0.09828198
000340 41 3b 1b 3e 57 d4 0d 3e 86 7d 43 3d ec e6 a0 3d
       0.15159322 0.13850532 0.04772713 0.07856545
000350 a1 7e e5 bc 89 bf 3b bd d3 d8 7c 3e ea 35 23 3d
       -0.028014483 -0.04583696 0.24692087 0.03984634
000360 7c 13 11 bc c7 7d ff bd f5 2c 00 3d 02 e7 40 bd
       -0.008854743 -0.12475162 0.031292874 -0.047095306
000370 3d 93 40 3e 10 61 0c be eb 21 10 3d 31 6b 25 bd
       0.18806167 -0.13708901 0.035188597 -0.04038543
000380 9d 2b a8 bc 36 d6 d3 bd 1c ba 44 3d d6 75 91 3d
       -0.020528609 -0.10343592 0.04802905 0.071025535
000390 4a b7 94 3e c3 1e 99 3d e4 b2 7d bd 54 00 fc bc
       0.29046088 0.074765705 -0.06193818 -0.030761875
0003a0 51 a7 ec 3d db 97 db bd 1e cb 19 bd ab 3d 45 3d
       0.115553506 -0.107223235 -0.037547223 0.048154514
0003b0 ac 78 4d bd fc f6 12 3d 32 43 12 3e 8f b4 10 3d
       -0.05016391 0.035880074 0.14283445 0.035328444
0003c0 0b 1d 89 bc b8 e3 3a bd 24 c8 ea 3d b8 df 40 bc
       -0.016737482 -0.045627326 0.11463955 -0.011772089
0003d0 81 ef ae 3c 5a c3 6d bc 73 95 e0 3c 2a 5c 1e 3e
       0.021354439 -0.0145119075 0.027415013 0.15464845
0003e0 14 86 70 3b 5e 82 08 3e 8b 86 91 bd 18 7e 6f bd
       0.003670101 0.13330981 -0.0710574 -0.05846986
0003f0 57 e6 7f bd 65 92 2c bd 7b ea b0 bb f9 02 ab 3c
       -0.06247553 -0.0421318 -0.005399046 0.02087544

network_body._body_endoder.seq_layers.2.bias f4 [128]
000000 a7 6d ea 3c 88 73 8a bc 41 09 ae 3b 5e fe 4d bb
       0.02861674 -0.016900793 0.0053111617 -0.0031432132
000010 5e 09 a4 3d 9c 7a 93 3b cf 05 dc 3c 1e e6 74 3d
       0.08009599 0.0045007 0.026858239 0.05978977
000020 ac 5b 8b bd 11 c1 3c 3d ca 40 3d 3d b1 ca db bc
       -0.068045944 0.04608256 0.046204366 -0.02683005
000030 d5 c2 39 3c cf 43 fa bc 40 b9 85 bd 0e ec 13 3c
       0.0113379555 -0.030549912 -0.06529474 0.009028448
000040 41 fc c6 bc ed 14 36 bd b4 58 d5 bb c9 b2 a1 bc
       -0.024290206 -0.04445355 -0.0065108184 -0.019738572
000050 c3 36 e9 3d 48 84 fb 3c f6 88 02 bc 08 af 03 3d
       0.11387398 0.030702725 -0.007967224 0.032149345
000060 d9 6c 8b 3b 47 86 96 3c de e3 8e 3b 0b 6d b2 3c
       0.004254919 0.018374575 0.00436066 0.021780511
000070 c5 df af 3a e4 6e f2 bc c1 aa ec bc b6 8c de bb
       0.0013418129 -0.029593892 -0.028890016 -0.0067916764
000080 2e bc e4 3c 82 53 a3 3c 7d ea 3b bc 6a f8 24 bd
       0.027921762 0.01993728 -0.011469481 -0.04027597
000090 b2 d8 cc 3b 3e 12 4e bd ea 4c 22 3d 8d a7 55 3d
       0.006251418 -0.050310366 0.039624132 0.052161742
0000a0 af a4 3d bd 94 57 27 ba f8 3b 47 3d 47 04 97 bc
       -0.046299633 -0.00063835946 0.048641175 -0.018434657
0000b0 4a 3f f5 bb 45 06 47 3d ca e1 2f bd e7 fa 45 3d
       -0.0074843513 0.048589963 -0.04293994 0.048334982
0000c0 ba d9 83 bd 9f 3d 4d bb 6f fd c3 3d 91 06 dc bc
       -0.064380124 -0.0031317247 0.09569823 -0.0268586
0000d0 9f a1 a7 3b 28 40 69 bd 0b 3b db ba 6f 3b 8c bb
       0.0051157023 -0.05694595 -0.001672597 -0.004279546
0000e0 bc 7b 8f 3c 29 ca cc 3c 47 84 f4 3a bd 29 02 bd
       0.017515056 0.024998741 0.0018655144 -0.031778086
0000f0 b0 54 bb bb c6 f4 a3 bc 53 ce 34 3c 05 9d 9a 3d
       -0.0057168826 -0.020014178 0.01103552 0.0754948
000100 e2 a8 c0 bc 35 c6 2a 3d b0 c6 53 3d 65 ce 47 bc
       -0.02351803 0.04169293 0.051703155 -0.012195204
000110 27 03 5b 3d 6f 1f f4 3c 3c 9d 7c bd 52 74 2b bd
       0.053469803 0.029800145 -0.061673388 -0.04185898
000120 f4 1b 8b 3d ee 53 1a bd f0 44 39 3a b2 02 bf 3c
       0.06792441 -0.037677698 0.00070674624 0.023316715
000130 11 34 54 3c 9b 04 95 3a 10 8d df 3b 55 86 1a 3d
       0.012951867 0.001136917 0.006822236 0.037725765
000140 5e 63 a6 bc 3f 77 44 3d fb c0 30 3c e0 e7 aa bb
       -0.020311054 0.047965284 0.010788198 -0.00521563
000150 4f 5a 0b bd 6a 76 06 bd b6 47 5a bc f7 b3 37 bd
       -0.03402167 -0.032827772 -0.013322761 -0.044849362
000160 14 4f 10 bd ab e1 71 3b 4e 90 16 bd 04 7e b7 3d
       -0.035231665 0.003690819 -0.036758713 0.089595824
000170 2a 19 6a 3d 42 37 de 3c aa 25 3e bd a4 2f 80 3d
       0.057152905 0.027125958 -0.046422638 0.06259087
000180 c3 c8 f4 bc 2d 43 5b bd 81 fb 0f bd 7e 13 97 3c
       -0.029880887 -0.05353086 -0.035151962 0.018441912
000190 08 f1 0c 3d c0 3e 83 3c 28 a2 51 bc d1 62 8f 3c
       0.034409553 0.016021132 -0.012795009 0.017503174
0001a0 98 3f 01 bd de c6 a4 bc 86 89 30 3d 12 ce 61 bd
       -0.03155479 -0.020114359 0.043099903 -0.055128165
0001b0 07 dc ed bb 4e b4 49 bb e7 88 82 3d 03 0d 78 3d
       -0.0072588953 -0.0030777636 0.06373768 0.060559284
0001c0 e7 f2 b0 bc 3e 5e 30 3d 7a 0a 5d 3d b1 b2 45 bc
       -0.0216002 0.043058626 0.05396507 -0.012066529
0001d0 33 f6 5f bc a8 b1 ba bc 68 a2 06 3c 28 19 d5 3c
       -0.013669538 -0.022789791 0.008217432 0.026012972
0001e0 6e 45 38 bc 26 b9 30 3b af 81 47 3d 12 d3 34 3d
       -0.011247022 0.0026965826 0.04870766 0.044146605
0001f0 db 16 3e 3d 97 8c 1c 3d ce 2a 34 bc 42 64 77 bc
       0.046408515 0.038220014 -0.010996534 -0.015099587

action_model._continuous_distribution.log_sigma f4 [1, 2]
000000 d0 48 1b be cd 01 62 be
       -0.15164495 -0.22071

action_model._continuous_distribution.mu.weight f4 [2, 128]
000000 7a 49 9b 3d 46 8e 0d bc f3 e4 5d 37 0b 6f 12 bd
       0.07582374 -0.008639878 1.3225933e-05 -0.03575043
000010 f4 2e 31 bd 4b f9 41 bd 61 55 a0 bd 5f b6 ad bd
       -0.04325767 -0.047356885 -0.07828785 -0.0848205
000020 50 b7 7d bb 9b f5 50 bc d6 37 87 3b d9 e1 3a bc
       -0.0038714 -0.012753869 0.004126529 -0.011406385
000030 7a 84 83 3d 22 8e 46 3b f1 ea f3 3b a0 20 82 3d
       0.06421752 0.003029712 0.0074437787 0.06353879
000040 0a a3 c6 bc 7d 1d 1b bb 42 58 c1 bc ab 4e 04 bd
       -0.024247665 -0.00236687 -0.023601655 -0.032301586
000050 cd 00 e6 39 94 36 6a bc fd 49 24 bd c2 61 75 bd
       0.00043869615 -0.014295239 -0.040109623 -0.059907682
000060 4c 3b 2f bb 61 dc 89 3b 5d 9d 5b 3b 58 97 1d 3c
       -0.0026738225 0.0042071794 0.0033510544 0.009618603
000070 46 8b 6a 3b 5d 86 78 bb 2f 69 10 3c e0 55 f8 ba
       0.003578858 -0.0037921884 0.00881414 -0.0018946491
000080 05 d2 1b bc cb 95 1a 3d 16 1a 56 3c e9 e9 15 3c
       -0.009510522 0.03774051 0.013067743 0.009150007
000090 07 9a 04 bb 77 91 51 bb b0 fd da bc a7 8b 1d 3c
       -0.002023341 -0.0031977573 -0.026732296 0.009615815
0000a0 b1 df 11 3b 26 80 6a 3d 8f 68 0f bb fe a9 87 bc
       0.0022258575 0.057251118 -0.002188239 -0.01656055
0000b0 f1 c0 22 3d e2 b6 01 bc 71 fa f8 bb 74 9b a7 bc
       0.039734785 -0.007917138 -0.0075982143 -0.020459868
0000c0 0e dd 6a 3a 0f 87 87 3b d0 91 90 bb b8 0f 17 bb
       0.00089593313 0.0041359733 -0.0044119135 -0.002305014
0000d0 7f 2f 14 3b c8 29 87 bc e7 3c 44 3d ff 00 1a 3d
       0.0022611318 -0.016499415 0.047909644 0.037598606
0000e0 eb 22 b1 3b 4d e4 4c bd 4b ef 3d bb 86 e5 e5 3a
       0.005405774 -0.050022412 -0.002898174 0.0017539717
0000f0 a5 ce ce bc 14 13 ce 3c 65 23 10 bb e7 68 cd bd
       -0.02524502 0.025155582 -0.0021993753 -0.10029774
000100 bc 0f be bc c4 fe 42 bd c8 bc e5 3d 3c 34 4a bb
       -0.023200862 -0.047606245 0.11217648 -0.0030853888
000110 a7 7b 85 bc 53 24 4c bd 8c dc 23 bb 3d 71 99 ba
       -0.016294314 -0.04983933 -0.0025003282 -0.0011706721
000120 1a c9 37 bd 68 d5 08 bc 7c 99 65 3d 32 06 24 bc
       -0.04486952 -0.008351661 0.056054577 -0.010011243
000130 d6 27 05 3c 2e 5d 8b 3b 4c d4 9e 3d 1c 2e 08 3e
       0.008127173 0.0042530512 0.07755336 0.1329884
000140 0d 8e 25 bc 0a e5 48 3c 0c 63 70 3c 07 5c 61 3c
       -0.010104668 0.012261638 0.014672052 0.013754851
000150 9a 27 9d bc d8 57 14 3b 50 2e dd 3a 3e 09 eb bb
       -0.019183923 0.0022635367 0.0016874764 -0.0071727326
000160 4a f9 87 3c 92 23 0a bd e4 73 46 ba db 39 9b bd
       0.016598362 -0.03372533 -0.00075703696 -0.075793944
000170 ac 80 1b 3d f6 05 1b 3d f9 f3 71 bc fc 65 d5 bd
       0.037964508 0.03784748 -0.01476764 -0.104198426
000180 02 91 ce ba 38 ad d8 bb 8c 37 f0 3b cf 7c 13 3c
       -0.0015759768 -0.006612446 0.0073308405 0.009001925
000190 5e 9d 2f 3c 22 3f aa bd 16 c7 f4 3c bc 18 1e bd
       0.010718672 -0.08312823 0.029880088 -0.038597807
0001a0 c5 bc 43 3b db c0 c6 3c 20 f3 b5 3d a9 2b e9 bb
       0.0029867154 0.024261883 0.08884263 -0.0071158004
0001b0 5e 73 be bc aa ea ac 3b e0 4c 20 be ef 9d 36 bc
       -0.02324837 0.0052769976 -0.15654325 -0.011146053
0001c0 ca fb 34 3c cb 8b 06 3d 19 cf 15 3b 16 2a 10 bd
       0.011046359 0.03284816 0.0022859036 -0.035196386
0001d0 f7 69 25 3d b8 38 20 3d bb 8d 35 bd 58 70 96 bd
       0.04038426 0.03911659 -0.044324618 -0.073456466
0001e0 a3 96 2d bb a6 3a 93 3a b6 13 05 3d 27 de 8f bd
       -0.0026487492 0.0011232689 0.0324895 -0.07024794
0001f0 1d f2 bf bd 19 0c 80 bd ad 73 a9 3b dc 97 ad 3c
       -0.09372351 -0.062523074 0.0051712603 0.021190576
000200 b6 5f a1 3c a0 76 4a bb 44 dd f2 b9 16 5d 37 3c
       0.019698959 -0.003089346 -0.00046322693 0.011191627
000210 fe 5f 46 bd e9 76 fd 3c f3 06 6d 3d 4c 54 d9 3d
       -0.04843139 0.03094049 0.057867955 0.106117815
000220 69 45 a8 3b 87 70 27 bd 4b 2a 09 bd 82 96 d7 3c
       0.0051352275 -0.0408788 -0.0334876 0.026316885
000230 5b 58 03 3d c3 0a 05 bb 35 1c ae 3c 3d e2 3e 3d
       0.032066684 -0.0020300604 0.021253685 0.046602476
000240 d2 22 ef 3a 6d 9c bd 3a c3 d7 5e 37 f9 5b 36 3b
       0.001824463 0.0014466174 1.3282467e-05 0.0027825816
000250 f2 f8 f7 bd e1 4a 27 bd 83 32 fd 3c dc 92 8a bc
       -0.121080294 -0.040842894 0.030907875 -0.016915731
000260 33 4b da 3d 6c cf cd bc 95 0d 93 bc 80 50 e9 bb
       0.10658874 -0.02512332 -0.017950812 -0.007120192
000270 38 ae d8 bb 47 c3 88 38 54 70 6a 3d 11 61 88 3b
       -0.0066125654 6.5213586e-05 0.05723603 0.004161962
000280 eb 9e 79 bd d8 cc 3b bd 73 06 aa 3b 3e 41 d6 3a
       -0.06094257 -0.04584965 0.005188757 0.0016346348
000290 0f a9 92 bb 44 2f 3e 3b d2 5f 70 bd 94 9d 83 bd
       -0.0044757198 0.0029019872 -0.05868513 -0.0642654
0002a0 74 22 18 3c ae 35 35 3d d3 d2 b0 bd 30 e4 ec 3b
       0.009285558 0.044240646 -0.086339615 0.0072293505
0002b0 af ef 20 3d 3b 51 aa bd d9 df da 3b 4e d3 86 bd
       0.03929108 -0.08316275 0.0066795168 -0.06583272
0002c0 81 4f 2e 3b 4b a3 85 bc b4 2e 1d be f8 be 22 3b
       0.002659768 -0.016313216 -0.15349847 0.0024833065
0002d0 da 22 12 bd e6 ab 6c 3c d6 0e 67 3b 63 9d 0e 3c
       -0.03567777 0.014445281 0.0035256646 0.008704516
0002e0 15 a0 a0 bb 20 02 ea 3c 45 63 6b bb 3a 7d 27 3c
       -0.0049018958 0.028565466 -0.0035917324 0.010222727
0002f0 15 5e aa bc 02 e1 64 3d 06 00 d9 3d e5 89 a5 bd
       -0.020796815 0.055878647 0.105957076 -0.08082942
000300 fa 2a a7 39 4b 94 88 3d 7e cd 49 bc 18 eb a1 b3
       0.00031884742 0.0666891 -0.01231706 -7.53991e-08
000310 ca 25 ae bd 6e a1 51 bd 59 63 25 3b 19 60 15 3b
       -0.085033014 -0.051179342 0.0025236218 0.0022792874
000320 5f 79 e5 bd 01 cb c0 3a d5 a1 e3 3c 95 23 3b bd
       -0.1120479 0.0014708937 0.027787128 -0.04568823
000330 5e 7a e2 bc 19 ee 9f 3d 15 f1 20 3d 9c 42 e3 3c
       -0.02764624 0.078090854 0.039292414 0.027741723
000340 0b af 95 39 4f 92 b1 bd 67 4e b2 bc 18 0e af bc
       0.00028549912 -0.08670484 -0.0217659 -0.021369025
000350 d0 81 a1 3c dd 86 88 3b 5e 1a 33 3c 7d 55 7a 3c
       0.01971522 0.0041664676 0.010931579 0.015279171
000360 dd 63 fa 3c 05 a8 91 3d e7 40 87 3c 46 9a 94 bd
       0.030565197 0.07112125 0.01651044 -0.07255988
000370 12 6e c9 bd d5 a2 1a bd a0 e5 b2 3c f9 ca 32 3a
       -0.09835447 -0.037752945 0.02183801 0.00068204064
000380 4a 1f f5 b9 02 33 4d 3b 0b 4f a9 ba de 7d 47 bc
       -0.00046753354 0.003131092 -0.0012917233 -0.012176005
000390 85 9e 1e bd 62 2b 5e bd be ce 4a 3c 91 bb eb 3c
       -0.038725395 -0.05424059 0.012378393 0.028775962
0003a0 53 8d 5a 3b 03 f8 02 bc b3 4c b4 3a 0c df 3a 3c
       0.0033348396 -0.007993701 0.0013755768 0.011405718
0003b0 5d a4 73 3d 4e 89 3f bb 30 a0 70 3d dd 0d 77 bd
       0.05948292 -0.0029226127 0.058746517 -0.060315955
0003c0 59 15 0d 3c 25 38 81 bd 3f 8d 53 bd 72 0c d8 3c
       0.008611047 -0.06309537 -0.051648375 0.026373122
0003d0 42 49 a5 3c a4 63 d5 3c fe 27 15 3d ff 13 8b bc
       0.020176534 0.026048489 0.036415093 -0.016977308
0003e0 3d cf cd 3d 23 94 c7 3b 9d 2c 88 bd 5c 73 b1 3d
       0.10049293 0.0060906573 -0.06649134 0.08664581
0003f0 ac ad c0 bc ca 51 91 3c 57 86 57 b9 ee b5 8c 3a
       -0.023520313 0.017739195 -0.00020554043 0.0010735372

action_model._continuous_distribution.mu.bias f4 [2]
000000 69 6d 3e bb 8f b6 e2 bc
       -0.0029056913 -0.027674941

46 f4 [8]
000000 04 05 67 3d 2e 6f 3e 3d 7e b7 08 3f e6 e9 3a 3e
       0.056401268 0.046492748 0.53404987 0.18253288
000010 85 ce 0c 3f 02 3f f4 3e 99 d0 17 3f be 23 f3 3e
       0.55002624 0.4770432 0.5930267 0.47488207
